exps/Baseline-Global/logs/exp-Chair-model-Chair-/ckpts/0_net_network.pth (torch_old, 508147 bytes, 46 tensors)

ae_encoder.conv1.weight f4 [64, 3, 1]
000000 35 8a 8c 3e 62 ed b8 bd cf 37 c1 be 20 9b c8 3e
       0.27449194 -0.09029652 -0.3773789 0.3918085
000010 91 5d 72 3e 77 33 0a 3f 1d 20 d3 3e dd fc ac be
       0.23668505 0.5398478 0.41235438 -0.3378667
000020 6e 5e ff 3e 5d 39 35 3e 36 e1 be be 49 01 05 bf
       0.49876732 0.17697664 -0.37281197 -0.51955086
000030 d7 3c 7d 3e f8 f4 6c 3d 44 fe fb bd 8a 9f df be
       0.2473024 0.057850808 -0.12304357 -0.43676406
000040 e1 8d 03 bf 7f 4b 81 be db c4 97 be f3 85 cc 3e
       -0.51388365 -0.2525291 -0.29642376 0.39945945
000050 fb c4 d9 be ab 46 33 3e 69 cf 7e be c7 31 c6 be
       -0.42533097 0.17507426 -0.24883808 -0.38709852
000060 97 9e 9e be 20 b7 de be 18 31 a7 3e b9 56 50 bc
       -0.3098037 -0.43499088 0.32654643 -0.012715989
000070 38 90 21 3e 8c 16 0e 3f 30 5d a2 be 17 45 24 3e
       0.15777671 0.55503154 -0.3171172 0.1604198
000080 5a 55 81 be 03 4c f4 ba 26 88 03 bf c3 7a 76 bd
       -0.2526043 -0.0018638376 -0.5137962 -0.06017567
000090 7f 88 04 bf 30 31 bf 3e 7b b8 f0 3c 11 31 6a be
       -0.51770777 0.37342215 0.029384842 -0.2287028
0000a0 66 cd b8 be ca 79 5c be 5d 26 0b bf 8e f2 89 be
       -0.36094207 -0.21530834 -0.5435541 -0.26942867
0000b0 0e 3d ff 3e 75 de b0 bd 7a 11 c0 3e 6e 21 ff 3e
       0.4985127 -0.0863618 0.37513334 0.49830192
0000c0 fc c9 0d be 6c 3d 03 bf dd 11 0e be 01 2a b1 3e
       -0.13846582 -0.512656 -0.13874002 0.3460236
0000d0 97 16 2d 3e dc 56 76 3e d0 13 8d 3d ea eb 95 be
       0.16903149 0.24056572 0.068885446 -0.2928155
0000e0 34 57 1b 3d 10 f9 95 3e 02 9e dc be a5 65 dc bd
       0.03792496 0.29291582 -0.430893 -0.10761575
0000f0 07 37 b7 be 02 9e d0 3e 64 0c b8 3e e1 5e 21 3d
       -0.3578417 0.4074555 0.35946953 0.039397124
000100 46 f1 e3 be f3 1d 04 3f 89 9b d5 be c3 4f 9d 3e
       -0.44520015 0.516082 -0.41720226 0.30724916
000110 de 67 62 3e f7 dc a7 3e 30 16 c6 be b2 30 68 bd
       0.22109935 0.3278577 -0.38688803 -0.056687064
000120 82 cb c1 be d6 f1 22 be 01 42 35 3e 08 4a da be
       -0.37850577 -0.15912566 0.1770096 -0.42634606
000130 4e 37 fd be d8 c1 a4 3d c9 f8 b8 be 43 e8 f1 be
       -0.49456257 0.08044785 -0.36127308 -0.47247514
000140 80 d4 57 3e a9 47 0a 3f 38 ce b3 3e 74 64 92 be
       0.21077156 0.54015595 0.3511827 -0.28592265
000150 f4 b6 d0 be 16 fe f0 be e6 11 fe 3e 04 07 0e bf
       -0.40764582 -0.47068852 0.4962303 -0.55479455
000160 32 59 10 bf cc 88 b1 be 29 be a4 be 67 37 07 3f
       -0.563861 -0.3467468 -0.3217633 0.5281891
000170 18 02 cf 3e 70 bf 04 be 55 4d a3 be 96 37 b8 3d
       0.40431285 -0.12963653 -0.31894937 0.08994977
000180 16 e4 92 bc 64 8b 79 3e df e7 0b bf 95 c6 bb 3d
       -0.017931025 0.2436958 -0.5465068 0.09168736
000190 a4 c4 12 bf d9 50 fb be 7d ee 02 3e 42 b8 87 be
       -0.573313 -0.4908512 0.12786289 -0.26507765
0001a0 4e 84 62 be 35 5f 00 bf 80 2b 0d 3e 2e ae f2 3e
       -0.22120783 -0.50145274 0.13786125 0.47398514
0001b0 8c 33 15 3e ce 68 ec 3e 92 4f ed be 7c 4f 6f be
       0.14570445 0.4617371 -0.4634977 -0.23370165
0001c0 55 a4 93 3e 68 52 b4 be 3b 89 73 be bf 00 8a 3e
       0.28836313 -0.3521912 -0.23782818 0.26953694
0001d0 b1 d5 3a bd 1a 4f b4 3e e8 cb f4 3e 61 54 0b 3f
       -0.04561395 0.352166 0.47811818 0.54425627
0001e0 22 32 f2 3e 8c 9f 5f be 2e b9 a6 3e 88 1b 82 3e
       0.47303873 -0.21838206 0.32563156 0.2541163
0001f0 7e 00 d7 3e ec c3 87 3e dc dc 1c 3e 9c d8 d2 3c
       0.41992563 0.26516664 0.15318626 0.025738053
000200 d1 38 b7 bd 50 d5 ef be 48 18 0e bf 72 03 f7 3e
       -0.08946384 -0.46842432 -0.555058 0.48244816
000210 05 08 a6 3e a9 12 0b bf e0 d2 78 3e 48 3c 53 be
       0.32427993 -0.5432535 0.24299192 -0.20628464
000220 cc 4d d1 3e 24 4a 08 bf 23 e7 50 3e 0b 3e df be
       0.40879667 -0.5323813 0.20400672 -0.43602023
000230 4e e7 8d 3e d5 a5 ef bd 8e 66 f0 3e dc 15 d7 be
       0.27715534 -0.11701552 0.46953243 -0.42008865
000240 8f 46 c6 be f4 67 b3 3e e9 95 3d 3e e3 5e e5 be
       -0.38725707 0.35040247 0.18514217 -0.44798955
000250 26 1a 81 be 36 2f c4 3e b9 b4 09 bf f2 30 65 be
       -0.25215262 0.3831727 -0.53791386 -0.22381952
000260 ed 2e 9f bb 40 d4 00 bf 86 ea ad be 5b 9b f6 bd
       -0.004857889 -0.5032387 -0.3396799 -0.120413505
000270 de 2c c9 be 5e 57 7d be 9a f7 07 be 39 5b 0b 3f
       -0.39292043 -0.24740359 -0.13278046 0.5443607
000280 49 5e 52 3c 6b f3 19 be ed c9 2d be 1e 46 b9 be
       0.012839862 -0.15034263 -0.1697156 -0.36186308
000290 ed 93 6a be c0 bb 7d 3d e1 7c 01 bf a8 48 14 3e
       -0.22907992 0.06194663 -0.50581175 0.14480841
0002a0 17 ce 02 3f 02 18 7f be 58 92 08 3f d1 ba ec 3e
       0.5109572 -0.24911502 0.533483 0.4623628
0002b0 c2 66 62 be 02 61 b1 3e 4d fb a9 3e 8c 03 9b be
       -0.22109511 0.34644324 0.3319954 -0.30276144
0002c0 b4 1c f3 be d4 81 8c 3e 2c bf 9b 3e e7 97 06 bf
       -0.47482836 0.274428 0.3041929 -0.52575535
0002d0 15 d7 64 3d 2f 7a f1 3e ba ce 21 be 0b 7e d2 be
       0.05586918 0.4716353 -0.15801516 -0.41111788
0002e0 76 73 a7 3e d0 f9 7a 3e 43 c8 d2 be fc 15 db 3e
       0.32705277 0.24509358 -0.41168413 0.4279021
0002f0 13 82 64 3e 88 c3 0f bc ec 0b db 3e 08 af 03 3f
       0.22315244 -0.008774646 0.42782533 0.5143895

ae_encoder.conv1.bias f4 [64]
000000 f5 fa ec 3e f3 9c e7 be 98 55 0b 3f b2 d6 8d bd
       0.46285215 -0.4523693 0.5442748 -0.069257155
000010 0a e1 dd be 6d 33 6b bc d2 5d 02 bf 64 0a 86 bd
       -0.43335754 -0.014355523 -0.5092441 -0.065449506
000020 b8 79 70 3e a9 8d b6 be d0 ac db be c5 a1 96 3e
       0.23483932 -0.35654953 -0.42905283 0.29420295
000030 9d 53 1b 3e 76 21 07 bf d2 32 00 bf 14 02 82 3d
       0.15168615 -0.5278543 -0.50077546 0.063480526
000040 f8 70 2f 3e 51 6a 7f be c9 7f 05 3f 65 91 bc 3e
       0.17132938 -0.249429 0.5214811 0.36829677
000050 64 f6 4b 3e 9e 17 fa be cd 20 9a 3e 33 91 81 3e
       0.1991821 -0.48846143 0.3010315 0.2530609
000060 de cc 07 bf 10 2c c3 3e 96 0a 06 3f 95 0f 3e be
       -0.5304698 0.38119555 0.523599 -0.18560632
000070 41 f2 08 bf f3 7b e9 bd 51 ff d3 3b ca f8 4b be
       -0.5349465 -0.114005946 0.006469645 -0.19919124
000080 ea fc 86 be 41 40 00 bf 73 dc 58 be 4b df 8f be
       -0.26364833 -0.50098044 -0.21177845 -0.28100047
000090 27 e7 08 3d 5d 7f 77 3e 51 4d 0a bf 2e cf f8 be
       0.03342357 0.24169679 -0.54024225 -0.48595566
0000a0 7c 4e 4b 3e 46 1a be 3e 75 6d f2 be d7 67 63 3e
       0.19854158 0.3712942 -0.47349134 0.2220758
0000b0 e0 72 e0 3e c1 51 02 bf f6 56 a6 3d e9 3a 20 be
       0.43837643 -0.50905997 0.08122055 -0.15647472
0000c0 b4 2d 0a bf f4 09 fa be 34 be 93 be fd 52 83 3e
       -0.5397599 -0.4883572 -0.2885605 0.25649253
0000d0 d8 79 5e 3e 07 cc 92 3e 0a df ce 3e f4 34 c4 bd
       0.21726167 0.28671286 0.4040454 -0.095804125
0000e0 24 4c d8 be 0d a1 9b bd 60 7a d9 bc ed f2 3f 3e
       -0.4224559 -0.075990774 -0.02654761 0.18745013
0000f0 29 f4 1a bd 84 14 6a 3e 6b a1 97 be b6 60 96 3e
       -0.037830506 0.22859389 -0.2961534 0.2937066

ae_encoder.conv2.weight f4 [64, 64, 1]
000000 c7 1b f9 3b 83 a9 71 bd 2c 53 2f 3d 86 b0 94 3d
       0.0076021883 -0.05899955 0.04280393 0.07260232
000010 8e 19 bc 3c b0 77 7f 3d ac f0 91 bd 3b e1 05 ba
       0.022961404 0.062370002 -0.07125983 -0.00051071093
000020 da 20 06 bd ee b2 90 bd 17 29 cc bd f7 55 86 bd
       -0.032746173 -0.07065378 -0.09968775 -0.06559365
000030 bd 9a ec bd 18 f1 8b bc 98 1d ee 38 e9 8e b1 bc
       -0.115529515 -0.017082736 0.000113542366 -0.02167459
000040 c2 9f 0a 3d 62 89 de bd 99 87 26 bd 78 02 23 bd
       0.033843763 -0.108660474 -0.04065666 -0.039797276
000050 2c ae 1e bd 53 2a e8 3d c5 70 d0 bd 05 02 09 3c
       -0.038740322 0.11336198 -0.10177759 0.008362298
000060 4d 68 f9 3d 34 be 0f 3d ed e8 be 3d fd bb b2 bd
       0.12178097 0.0350935 0.09321771 -0.08727262
000070 e4 06 f9 3d 68 0e 2e bd 7d ab f8 3c 2a d3 b3 3c
       0.121595174 -0.042494208 0.03035521 0.021951277
000080 80 90 b2 3d 17 7d 82 bd c1 04 ad bd 0f ae b9 bd
       0.087189674 -0.06371515 -0.08448172 -0.09066402
000090 f7 86 6d bd d4 e5 d1 3d 83 fa 6a 3d 70 5f 42 3c
       -0.05799004 0.10248914 0.057367813 0.011863574
0000a0 9a fe 1d bd 26 1f df 3d e8 cd 7e 3d 7c 78 e5 3d
       -0.038572885 0.10894613 0.062208086 0.11204621
0000b0 6a 8b 99 bd 1a a8 7c bc 97 e7 b2 3d 16 bd b1 bd
       -0.07497294 -0.015420938 0.087355785 -0.086786434
0000c0 60 1e 24 bc dc e4 b3 3d 56 8a b3 bd 4d 2d df bc
       -0.010017008 0.08783886 -0.0876662 -0.02724328
0000d0 f8 d1 93 3c 0b d2 78 bd 2f 40 89 bc fc 26 a0 3d
       0.018044457 -0.060747188 -0.016754238 0.07819936
0000e0 d4 0c 3a bd 64 20 91 3d 76 69 95 bc ea 07 b5 bb
       -0.04542239 0.07086256 -0.018238764 -0.005524625
0000f0 9f 89 a5 3d b1 c4 19 3d 83 5f 80 3d da 3e 94 3d
       0.0808289 0.037541095 0.062682174 0.072385505
000100 89 41 e9 bd 27 62 e1 bd 23 44 d0 3d b7 c1 ad 3d
       -0.11389453 -0.11005049 0.10169246 0.08484214
000110 6a 39 35 3c 3e 46 bd 3d 18 6b 9e bc 1c 38 9d bc
       0.011061052 0.09241913 -0.019338176 -0.019191794
000120 e0 6c f6 bd 49 e0 cf bd bb f9 db 3b b5 1b 84 bc
       -0.12032485 -0.10150201 0.00671312 -0.016126493
000130 c7 42 9b 3d 5e bc eb bd 98 9d 5e bc 73 4e e3 3d
       0.07581096 -0.115105376 -0.013587378 0.110989474
000140 66 6a bb bd df 36 95 bd 02 3f e4 3c 78 f9 c8 3d
       -0.09151153 -0.072858565 0.027862076 0.098132074
000150 48 5a 92 3d 7f cd f2 3d 62 83 7d 3c d4 21 9e 3c
       0.07146126 0.118556015 0.015473219 0.01930324
000160 12 2b 94 3d c9 cf dc bd 58 d0 23 bd 49 f4 c3 bd
       0.072347775 -0.107818194 -0.039993614 -0.09568078
000170 5a 50 b0 bd 21 0d 2c 3d de 6c 3f 3d 9b 94 c0 3a
       -0.08609076 0.04200471 0.046734683 0.0014692725
000180 6c 54 74 bd 17 f0 d6 bd 09 9b 84 3c 3e 37 85 bd
       -0.059650823 -0.10495012 0.016187208 -0.06504677
000190 fe ac db 3d ad 0c 7e 3d 1f cf c3 bc ba 09 1a 3d
       0.10726355 0.062023807 -0.023902474 0.037606932
0001a0 2b d0 cb 3d 12 74 4a bd 87 63 df bd cc 9e 20 bc
       0.09951814 -0.0494271 -0.10907655 -0.009803485
0001b0 29 e6 21 3d b0 ed 20 bd 7d e6 d6 3d 7b fa d4 3b
       0.03952614 -0.039289176 0.10493181 0.006499586
0001c0 6e e0 0e 3d db 25 39 3d ef fc f2 3c 06 95 c6 3d
       0.034882 0.045202117 0.029661624 0.09696393
0001d0 b9 59 c8 bd 60 17 7f 3c 3e 43 df 3c 41 74 59 3d
       -0.09782738 0.015569538 0.027253743 0.053089384
0001e0 6a 79 19 bd 9c 04 6c bc 03 24 8f 3d 3d af 98 3d
       -0.037469305 -0.014405396 0.069892906 0.07455299
0001f0 e9 71 cb bd 5a c3 03 3d 8f ef 47 bc 7c d6 e0 3c
       -0.09933836 0.032168724 -0.012203111 0.027446024
000200 e2 c9 2c bd e7 0e 47 3d b8 b4 a2 3d 1d 43 68 bd
       -0.042184718 0.048598196 0.079446256 -0.05670463
000210 d7 e4 ef 3c 99 b6 8d 3d 92 80 b6 bd cd 9c e6 bd
       0.029283924 0.06919593 -0.089112416 -0.11260376
000220 dd 9f 06 3d 6f 02 af bc 87 9e 21 3d 22 2e e7 bd
       0.0328673 -0.021363465 0.039457824 -0.11288096
000230 06 8f de 3d 2c ca 97 bd 71 8e 17 bd fb d0 3c bd
       0.10867123 -0.07411608 -0.037001077 -0.046097737
000240 b4 20 aa 3b 52 a8 09 bd 27 c1 dc bd 4b 4b 9f 3d
       0.005191887 -0.03360779 -0.107790284 0.07778033
000250 40 57 ad 3d 7d e4 a0 3b 67 90 2b 3d a6 ff bc bd
       0.08463907 0.0049100504 0.04188576 -0.092284486
000260 b6 97 fb bc 4c 03 9a bd 8e 6c aa bd b4 b5 c4 3d
       -0.03071199 -0.0752016 -0.083214864 0.096049696
000270 52 d2 a2 bd 29 fa e2 bd 30 82 eb bd 41 fc ac 3d
       -0.07950272 -0.110828705 -0.11499441 0.08446551
000280 9b 1d 25 bc ef e9 ff bb ab b0 80 3d 7e 57 75 3d
       -0.010077859 -0.0078098695 0.06283697 0.059897892
000290 75 d0 58 3c 5a 92 82 bd b3 81 f3 3d 96 9f 58 3d
       0.013233294 -0.063755706 0.118899725 0.052886568
0002a0 98 b0 a2 3d fa f8 cc 3d 0c 01 d7 bd 48 3a 8c bd
       0.07943839 0.10008426 -0.104982466 -0.06847054
0002b0 99 e3 43 bd f0 a2 8b bd f4 2a bc bb e9 91 4a 3c
       -0.047824476 -0.06818187 -0.005742425 0.012363889
0002c0 be a9 1a 3d 7f d7 7a 3d 08 6b c8 3d ec 6f 5c 3c
       0.037759535 0.06124067 0.097860396 0.013454419
0002d0 90 c8 ab 3d 0c b2 ef 3d e4 79 4c bd 9e 6b c6 bd
       0.08387864 0.117038816 -0.04992093 -0.09688495
0002e0 5c b1 62 3d 72 41 1a bc f0 09 b1 bb 41 fa bf 3d
       0.055344924 -0.009415017 -0.005402796 0.09373904
0002f0 4e ff 76 3d c6 35 e3 3d f6 fe c0 bc cd cb 4c bc
       0.06030207 0.11094241 -0.023559075 -0.012499762
000300 71 27 3f bd dc 95 ae bd f7 ea 31 bd c7 14 bf bd
       -0.046668474 -0.08524677 -0.04343697 -0.09330135
000310 cd 13 0e bd a3 e1 66 3d 04 f4 ce bd cb 2f 5c 3d
       -0.034686852 0.056367528 -0.10105136 0.053756516
000320 0c 41 ad bc 87 74 b7 3d cb de f4 3d 15 6a 90 bd
       -0.02114918 0.08957773 0.11956557 -0.070514835
000330 79 1e 26 3d fb 42 8e bc 53 bb 92 3d 3d ac 61 3d
       0.040556405 -0.017365923 0.071646355 0.0550959
000340 56 86 5e 3b ee 04 9e 3c 51 0d de 3d 06 c1 46 3d
       0.0033954582 0.01928946 0.10842384 0.048523925
000350 0c e4 62 bd 45 00 54 bc b1 0d ea bc 11 30 b4 bd
       -0.055393264 -0.012939517 -0.028570982 -0.087982304
000360 1f 96 45 3b 96 03 7d 3d 47 41 28 bd 43 a7 29 bd
       0.0030149294 0.061770998 -0.04107788 -0.04141928
000370 75 b1 a2 bd 67 00 4d 3d e9 26 97 bd 29 c7 f0 3d
       -0.079440035 0.05004921 -0.073804684 0.11756737
000380 e6 44 00 3c 8c 1f 58 3d 95 63 8f 3d 9b 42 86 3d
       0.007828927 0.05276446 0.07001416 0.06555673
000390 95 57 86 bd 70 8c e8 3d a8 49 64 bd b2 e0 86 3d
       -0.06559674 0.11354911 -0.055734307 0.06585826
0003a0 ca 9c 57 bd ed 2b b2 3d f4 34 f8 3d 2e 9e a3 3d
       -0.05263976 0.086997844 0.12119475 0.07989155
0003b0 42 7d bc bc ce d8 0e 3d 08 6c d1 3d 71 b2 f0 bc
       -0.023008946 0.03487473 0.102256835 -0.029381962
0003c0 2a 15 d9 bc 90 ad b4 bd 0b d9 a1 bd 03 fa b4 3d
       -0.02649935 -0.08822167 -0.07902726 0.088367485
0003d0 1d 88 92 3d fb 5f 6c bd 12 04 4e bd 8d a1 19 bd
       0.07154868 -0.05770872 -0.05029685 -0.037507582
0003e0 95 79 ff bd 0d 74 69 bd c2 b5 a9 bc 81 2f e2 bd
       -0.12474362 -0.05699544 -0.020716552 -0.11044217
0003f0 60 d6 10 3d 61 80 0a 3d 37 b1 b1 3d 2e ea f9 bc
       0.035360694 0.033813838 0.08676379 -0.030507173

ae_encoder.conv2.bias f4 [64]
000000 b2 68 0e 3d 25 a1 b5 bd ed a5 48 3d 21 06 8b 3d
       0.034767814 -0.088686265 0.048986364 0.06788278
000010 a3 21 b1 bd 39 7a 53 bd 70 f0 c7 bd e8 49 ec 3d
       -0.08648994 -0.051630232 -0.09762657 0.11537534
000020 94 ba aa 3d 94 1c f9 3c 02 fa e2 3d 1e 73 8b 3d
       0.08336368 0.030409135 0.110828415 0.06809066
000030 a3 27 76 bd d3 05 5e bd 72 81 e9 bd cd 97 e7 3c
       -0.060096394 -0.054204773 -0.11401643 0.028270626
000040 1c 2d ed bd d6 d3 9d 3d bb 68 84 bb c6 18 67 bd
       -0.115808696 0.0770642 -0.004040805 -0.05642011
000050 8c e4 6d bb 0d 42 f4 3c 32 64 3a bd 3a 62 b1 bd
       -0.0036299555 0.029816652 -0.04550571 -0.08661313
000060 3d eb a2 bb 1b 43 26 bd 62 fe 19 bc 35 49 d3 3d
       -0.0049718902 -0.04059134 -0.0093990285 0.103166975
000070 4f ff ac bd 13 76 fd bd ab 9f c4 bc 34 02 4f bd
       -0.08447134 -0.123760365 -0.024001917 -0.05053921
000080 7d be 4f bd 2c 48 ba bd 56 bf 61 3d cf 9c 06 bc
       -0.050718773 -0.09095797 0.055114113 -0.008216097
000090 20 ab e9 3d 9a 94 67 3d 27 f0 ac bd 79 b5 a2 3d
       0.11409593 0.056538202 -0.08444243 0.079447694
0000a0 e9 87 a6 bd 8e 51 bc bd df 85 16 3d 24 24 ff 3c
       -0.081313916 -0.09195243 0.036748763 0.031145163
0000b0 7d f7 c3 bc dc 84 fc 3d 9c 48 68 bd 5c b4 f4 bc
       -0.023921723 0.123300284 -0.05670987 -0.029871158
0000c0 20 92 2e bd ab 63 c7 bc db f9 82 bd 00 10 c5 bd
       -0.042619824 -0.024339518 -0.063953124 -0.096221924
0000d0 1f ee b2 bc 78 9b af bd 41 4e 42 bd cd 45 77 3d
       -0.02184206 -0.08574575 -0.04743791 0.0603693
0000e0 f8 1c f8 bd 56 e8 e0 3d 50 3f de 3d 1f 70 dc bd
       -0.121149 0.109818146 0.1085192 -0.10763573
0000f0 2b 09 83 3d 54 ae 5f bc 17 ef f0 bd 3f 5c fe 3c
       0.06398233 -0.013652403 -0.11764353 0.031049846

ae_encoder.conv3.weight f4 [64, 64, 1]
000000 fb 62 75 bd 5a 04 b8 bd 1b f2 bc 3c 26 08 c1 3d
       -0.05990885 -0.08985205 0.023064664 0.09425382
000010 89 08 bd 3d 73 0d df 3d 06 f0 f2 3d 0f 78 9b 3d
       0.092301436 0.10891237 0.11862187 0.07591259
000020 35 86 e8 bc 7d e6 4b 3d b8 a4 91 bd bf bb 83 bd
       -0.028384307 0.049780358 -0.07111496 -0.06432294
000030 15 74 a7 3d 85 3a d2 3d 45 97 77 3d 24 2c 2c 3c
       0.08176438 0.10265068 0.060446996 0.010508571
000040 4c b5 d7 3d 33 f9 d6 3d e5 63 a4 bd eb 1b a5 bd
       0.105326265 0.1049675 -0.08026866 -0.080619656
000050 02 46 af 3b de 23 f2 3d 51 7c f8 bd a7 c9 ca bc
       0.0053489218 0.118232474 -0.121330865 -0.024754358
000060 d7 70 f0 3c 65 79 c1 3d f1 f8 dd bd 09 d8 bd 3c
       0.029350681 0.09446982 -0.108384974 0.023174303
000070 50 36 d4 3d 6e f0 db bc 74 a2 b3 3c 79 ea e2 bd
       0.10361922 -0.026848044 0.02192805 -0.11079878
000080 43 11 13 3d 82 8c bb bd 36 28 ee 3d 5f 07 ab bd
       0.035905134 -0.09157659 0.116287634 -0.08351015
000090 e0 1e ce bd 86 3b ba bc 2e c0 31 bd e6 62 21 bd
       -0.10064483 -0.022733461 -0.043396167 -0.039400958
0000a0 d3 d3 af bc 88 8a 8e 3d 6b 65 02 bd 3b d6 d8 3d
       -0.02146331 0.069600165 -0.031835 0.10587736
0000b0 38 6c 9b 3b eb a2 84 bd d9 06 c2 bd bc f5 72 bd
       0.0047431253 -0.06476387 -0.09473962 -0.05931638
0000c0 34 5a c0 bd 71 3c 91 3d e7 fe a9 b9 bb 50 ea 3d
       -0.09392205 0.070916064 -0.0003242411 0.11441179
0000d0 7d 90 9e bd ce 56 ed 3c 7a 2e ec bd c1 e0 f0 bd
       -0.07742403 0.028972056 -0.11532302 -0.117616184
0000e0 de 21 53 bd 69 97 df bd c7 94 bc 3a f5 bd 8d 3d
       -0.05154597 -0.10917551 0.0014387601 0.06920997
0000f0 8b f1 92 3c 7e 12 ae bd 4a c4 87 bd 04 c3 de bd
       0.017937442 -0.08499621 -0.06629236 -0.1087704
000100 d2 d4 7d 3d 99 db c4 bc 62 b9 18 3d 12 6a 86 3d
       0.06197054 -0.024030494 0.03728617 0.065632
000110 f7 0b e5 3d 43 3c b4 3d 4d 0e ce 3d 64 d6 81 3d
       0.11183923 0.088005565 0.100613214 0.0633972
000120 ab 23 61 3d 7a da dc 3c 0a a6 e5 bd 27 63 98 bd
       0.054965656 0.026959646 -0.1121331 -0.07440787
000130 a8 8f 20 3c df ea a8 bd 29 10 70 bd 08 8c a8 3d
       0.009799875 -0.08247923 -0.05860916 0.08229834
000140 f0 6d ea 3d 2a bd 06 bd 17 a4 ca bc a4 4c 21 3d
       0.1144675 -0.032895245 -0.024736447 0.03937973
000150 9c 56 4f 3d c8 9b cc 3d bb 95 8a bc 9b b3 4d 3d
       0.050619707 0.099906504 -0.0169171 0.050220113
000160 2e 91 f9 bd 17 a9 30 3d 37 f3 84 38 66 c1 89 3c
       -0.12185894 0.043130007 6.339553e-05 0.016815852
000170 13 34 fa 3d 51 83 03 bd f6 22 0b 3d 83 cb 2c bc
       0.122169636 -0.032107655 0.03396889 -0.010546568
000180 21 ec c9 3d e1 47 53 bd d4 e2 b9 bd c8 e4 20 3d
       0.09859491 -0.05158222 -0.09076467 0.039280683
000190 ad e9 01 bb f8 3e 7c 3d 69 54 55 3c 96 90 23 3d
       -0.001982312 0.06158349 0.013020613 0.03993281
0001a0 12 7e c2 3b ec bf e3 3d bd 02 58 bb 91 d9 52 bd
       0.005935439 0.111205906 -0.0032960617 -0.05147702
0001b0 15 dd dd 3d 82 9f 26 bd 7f 37 e8 3d e7 61 43 bd
       0.10833184 -0.040679462 0.1133871 -0.04770079
0001c0 bb 9e 60 3d 49 a5 29 3d 8b d2 1c bc ac 26 ce bd
       0.054838877 0.041417394 -0.009571682 -0.1006597
0001d0 6c 8d 20 3d e4 f9 9e 3d b3 65 e3 3d 21 46 87 bd
       0.03919737 0.077625066 0.11103382 -0.06605173
0001e0 1c 65 49 bc 13 3d ed bd 22 cf b0 bd 74 0a c6 3d
       -0.012292173 -0.115839146 -0.086332574 0.096699625
0001f0 a7 64 7c bc 0d 5c 00 bd 1e 37 b1 3d e4 71 82 3d
       -0.015404857 -0.031337786 0.08653091 0.06369379
000200 ee d1 a9 3d be 43 23 3d c7 dd f0 3d f3 9a a7 bd
       0.08291994 0.039859526 0.11761051 -0.08183851
000210 7e 34 fd 3d 3b 6d 9d bd 27 d5 26 bd df 52 a3 3d
       0.12363528 -0.0768685 -0.04073062 0.07974791
000220 24 d6 84 bd d2 fa 25 bd 43 45 b3 3d 4d a4 ec 3d
       -0.064861566 -0.040522404 0.08753445 0.115547754
000230 81 9a c0 bc 65 36 88 bd 2b ac 9d 3c 67 12 eb 3d
       -0.023511173 -0.06651 0.019247135 0.11478119
000240 93 8f 29 bb dc 82 b4 bb 78 14 72 bc 30 d2 05 3c
       -0.002587293 -0.0055087637 -0.014775388 0.008167788
000250 1c 00 a1 bd f3 7a 03 3d 29 08 84 bd 64 d6 7c bd
       -0.07861349 0.032099675 -0.06446869 -0.061727896
000260 6f 78 5d bb d4 bc 76 3d ab 51 68 bd 5f b1 ad 3d
       -0.0033793708 0.060238674 -0.05671851 0.084810965
000270 ff 48 bd 3d 05 e8 cf bc 83 10 19 3d 2f 4c ad 3d
       0.092424385 -0.02537919 0.037369262 0.084617965
000280 8f 0f bf bd f0 85 dd 3d 16 dc 5b bd 0a c0 11 3d
       -0.093291394 0.10816562 -0.053676687 0.035583533
000290 c6 1e 62 bd 04 f4 ae 3d 22 ba 07 3c f8 f3 9c 3c
       -0.05520513 0.08542636 0.008284124 0.019159302
0002a0 ec ab b2 bc e0 28 a3 3d 63 78 b8 3d 41 ca cd 3d
       -0.021810494 0.07966781 0.09007337 0.100483425
0002b0 f9 c5 bd bd 8f 7f 0f bc c3 2a 8a bd ba 6c b1 bd
       -0.09266276 -0.00875844 -0.067464374 -0.08663316
0002c0 3e 48 d7 3c f4 78 95 bc 97 33 ac bb 8a ab da bc
       0.026279565 -0.018246152 -0.0052551734 -0.026693124
0002d0 b5 6f b2 bd b2 ed 7d bd 23 44 f1 bd da 6c f2 bd
       -0.08712713 -0.061994262 -0.11780574 -0.11837168
0002e0 4d aa eb bd 53 9f 82 3d 56 ae cd bd 54 44 92 3d
       -0.11507092 0.06378045 -0.100430176 0.07141939
0002f0 31 ba e0 bd af 2a e0 bd 87 6a 10 3c 69 3b a4 3d
       -0.10973013 -0.10945641 0.008814461 0.08019144
000300 f4 1e b6 3d 18 dd b1 bd b2 ea 9a bd 3f 89 39 3d
       0.088926226 -0.086847484 -0.07564296 0.045296904
000310 df f7 84 3d bd c0 69 bc 30 63 fa 3d 67 c9 8f 3d
       0.0649259 -0.014267144 0.1222595 0.07020836
000320 e6 7f 19 3d d9 b1 ad bd c1 a5 80 bc e3 6c 31 3d
       0.03747549 -0.084811874 -0.015704038 0.043316733
000330 03 30 41 3d 4a cf ee 3d aa 6a 85 bc 2b ff 3b bd
       0.04716493 0.11660631 -0.016286213 -0.045897644
000340 57 d6 fe 3d 56 c7 65 3c 1a 04 b6 3c f4 11 4f bd
       0.12443226 0.014024576 0.022218753 -0.05055423
000350 8b 43 24 3c 0c c4 94 bd fc 7d f4 3d d6 b1 58 3d
       0.010025869 -0.072639555 0.11938092 0.052903973
000360 39 6b a1 bd 2c 62 81 3d 5b 8e db 3d cd 45 aa bc
       -0.07881779 0.06317553 0.107205115 -0.020785237
000370 b2 20 27 bd 08 e6 46 3d 34 65 92 3d d9 70 7c 3d
       -0.040802665 0.04855922 0.07148209 0.061631057
000380 0e 5a 33 3d 6c eb 3e 3d ea 95 ff bd ec 0e 02 3d
       0.043787055 0.046611235 -0.12479766 0.03175251
000390 f4 45 52 bd 63 44 67 3c 41 4f a6 bd 76 83 37 bc
       -0.051336244 0.014115426 -0.08120585 -0.011200776
0003a0 65 3e 00 be b4 4f a5 bd 49 b2 e1 3d eb 2d b4 bd
       -0.12523802 -0.08071843 0.11020333 -0.08797821
0003b0 a6 52 e4 bd ab f4 37 3d 67 f3 ad bd 7c 99 8e bc
       -0.111485764 0.044911068 -0.08493691 -0.017407171
0003c0 98 b1 49 bd 38 50 c1 3d 86 d3 a1 bc 4a 17 5f 3d
       -0.049241632 0.09439129 -0.019754183 0.05446557
0003d0 e5 51 fe bc a9 e6 87 bd ae 9b 40 bd 12 96 7e bd
       -0.03104491 -0.06635792 -0.047023468 -0.062154837
0003e0 94 f2 e3 bd 25 3a a0 bd 6d 94 c8 bc 7c c0 8e 3d
       -0.111302525 -0.0782359 -0.024484837 0.06970307
0003f0 99 b4 d2 3d 62 45 ee 3d 98 30 a4 bc c8 2c 79 3c
       0.102883525 0.116343275 -0.020042703 0.015208431

ae_encoder.conv3.bias f4 [64]
000000 3f cc 83 3d 54 7e fd bd 4f 79 28 3d 4c 56 2f 3d
       0.06435441 -0.12377611 0.041131314 0.04280691
000010 e6 0a ea 3c 29 1e 5a bd 4b 83 92 bc f6 58 91 3d
       0.02856965 -0.05325142 -0.017884871 0.07097046
000020 4f 90 f1 bd b8 73 5f 3d 18 3b d6 3c a3 04 d4 bd
       -0.11795103 0.054553717 0.026151225 -0.10352447
000030 00 3e ce 3d 7c df a5 bd d0 7e 77 bd 61 94 ea bd
       0.10070419 -0.08099267 -0.060423672 -0.11454082
000040 33 07 74 3c e6 81 ea bb 0d 0f 68 bd 15 72 2b 3c
       0.014894295 -0.0071565984 -0.05665498 0.010464211
000050 ab 3a dc ba f3 26 ce 3d 5d 03 9b bd de e8 d6 bd
       -0.0016802152 0.10066023 -0.07569001 -0.10493635
000060 3d b6 a0 3d fa ac ad 3c c6 84 72 bd cf 87 78 3d
       0.07847259 0.021200646 -0.059208654 0.060676392
000070 1b 90 dc bd c0 27 d7 bd 51 f3 be 3d 39 e6 f2 bd
       -0.107696734 -0.105056286 0.09323753 -0.11860318
000080 3c ce 18 bd 90 51 95 3d 4d ac d1 bd 0c 2b 1f bd
       -0.037306055 0.072909474 -0.10237942 -0.038859412
000090 93 f4 0b bd a1 b9 9f 3d 24 56 99 3d b8 83 85 3d
       -0.03416879 0.07799078 0.07487133 0.06519264
0000a0 59 59 f3 bd e0 fe 64 bd 2c db ee 3d 63 6e 8a 3d
       -0.11882276 -0.05590713 0.116628975 0.06759336
0000b0 1f 0b ee bd ee ba 1f bd a8 4f cf bb 3f 52 fa 3c
       -0.11623215 -0.03899663 -0.0063266344 0.030556796
0000c0 49 53 c7 3d c4 1f af bd e4 73 dd 3d b0 76 d7 bd
       0.09732682 -0.08550981 0.1081312 -0.10520685
0000d0 7e c5 17 3d 59 e2 ed 3d c7 31 5c 3d 2b 25 29 3d
       0.037053578 0.11615438 0.05375841 0.04129521
0000e0 d2 e8 e6 bc 0b 10 e2 3d a8 7e c9 bd 48 f3 84 3d
       -0.02818719 0.11038216 -0.09838611 0.06491715
0000f0 49 0a be 3d 2f 66 8b bd f4 21 93 3d 74 dd 14 bc
       0.092793055 -0.06806599 0.071842104 -0.009086002

ae_encoder.conv4.weight f4 [128, 64, 1]
000000 1b 69 9e 3c 7c 80 f3 bc 19 64 fb 3c c3 da 6c 3d
       0.019337228 -0.029724352 0.030687379 0.057825815
000010 f6 6c 8b bd ab d3 e6 3d 0f c5 fe bc 32 50 ba 3d
       -0.06807892 0.11270841 -0.031099824 0.09097327
000020 8c ca df 3d d0 45 e6 bd 71 15 b7 3b b8 82 d1 bd
       0.109273046 -0.112437844 0.005587273 -0.10230011
000030 ae 68 30 bd c3 69 ee 3a 7a 40 99 3c 52 33 00 3d
       -0.04306858 0.0018189478 0.018707503 0.031298943
000040 7d 67 da bd 40 1b ba bd e5 54 4f 3d 8c 95 d5 bd
       -0.1066427 -0.09087229 0.05061807 -0.104289144
000050 d2 74 a8 bd 79 ed 06 3b 1c b6 04 3d 45 9e 3f bd
       -0.08225407 0.0020588322 0.032400236 -0.046781797
000060 db f4 24 3c 32 42 57 bd 3a d4 0d bc 74 a7 e2 3d
       0.010068144 -0.052553363 -0.008656556 0.110670954
000070 62 6c a8 bd 21 27 db 3d 1c ec f5 3d b6 b9 56 3d
       -0.082237974 0.107008226 0.12007925 0.0524232
000080 c1 07 cd bc c2 8f f3 bd 1b 9f 52 bd 3b f5 d9 bd
       -0.025028111 -0.11892654 -0.051421266 -0.10642477
000090 aa 6e d6 bd c1 82 35 bc f6 a1 98 bc ac 2e 8f 3d
       -0.10470326 -0.011078537 -0.018631916 0.06991324
0000a0 af 43 ce 3d dd 76 82 bb 3b 2e 63 3c 6d e1 81 bd
       0.10071503 -0.0039814548 0.013866003 -0.06341825
0000b0 65 a1 68 bd 30 b5 01 bd 90 06 f0 bd 17 43 79 bd
       -0.056794543 -0.031666934 -0.11720002 -0.060854997
0000c0 c5 c0 fc bd 42 55 0e 3d 92 9e 3a 3d 34 91 45 3d
       -0.12341455 0.034749277 0.04556138 0.04823418
0000d0 33 11 e2 3c fe 17 e0 3d 19 21 80 3c e8 25 7f bd
       0.027596092 0.10942076 0.015640782 -0.06229201
0000e0 6b f3 3d bc e2 04 53 bd ab e9 aa bd 24 f2 d3 bd
       -0.01159368 -0.05151833 -0.0834535 -0.10348919
0000f0 3b e6 c0 bd 2c 10 2d 3d a2 9b a7 bd fa d0 40 bd
       -0.09418913 0.04225175 -0.081839815 -0.047074296
000100 b5 96 00 bd 70 49 78 3c 5b d4 68 bd 3b e4 3f bd
       -0.031393725 0.015154228 -0.056843143 -0.046848517
000110 b4 cf 2d 3d ff 45 a3 3d 88 3e 04 bd 94 51 13 bd
       0.04243441 0.07972335 -0.032286197 -0.03596647
000120 ea e2 1a 3d 57 e8 ac 3d be 0b 03 3d 5a 62 ad bd
       0.03781406 0.08442753 0.03199362 -0.08466025
000130 e3 d6 b3 3d a0 e9 65 3a f7 d5 2f bd a1 39 8b 3d
       0.08781221 0.00087704696 -0.042928662 0.06798101
000140 66 42 f9 3c 0b 45 b0 bd c2 ff bf bd 5d 1e eb bc
       0.030427169 -0.08606919 -0.09374954 -0.028701002
000150 14 3a 66 3d ce 0e d7 3c c3 91 e8 3d b3 41 ae 3d
       0.05620773 0.026252177 0.11355927 0.08508625
000160 c6 be 1f ba cc 6b b2 3d e3 4e 8c bd 40 9d 85 bd
       -0.0006093796 0.08711967 -0.06850984 -0.06524134
000170 d7 9e 8c ba de 91 9f 3d f0 aa 00 be 44 f6 f6 3d
       -0.001072849 0.07791494 -0.12565207 0.1205869
000180 9a c1 28 3b 65 c6 00 be 1f 63 9d bd f8 53 19 3d
       0.002575016 -0.12575682 -0.076849215 0.037433594
000190 b7 aa 3e 3d 02 46 8e 3d d1 7d 90 3c ad e8 fe bd
       0.046549525 0.06946947 0.017638119 -0.12446723
0001a0 60 b9 1b 3c 6a 9d b3 bd e9 e7 dc 3d 77 1e a2 3d
       0.009504646 -0.08770259 0.10786421 0.07915967
0001b0 6c d9 60 bd 0f d8 f2 bd b4 9d e3 3d 14 a6 7f 3d
       -0.05489485 -0.11857616 0.11114064 0.062414244
0001c0 e1 d9 95 3d 67 ff 74 3d 9b 86 81 3d 5d d8 e6 bd
       0.07316948 0.059813883 0.06324502 -0.11271737
0001d0 ae c2 c0 3d 85 38 41 bd 90 bb 91 bd 3d 25 89 3d
       0.09412132 -0.04717304 -0.07115853 0.06696556
0001e0 61 c4 ac bd a2 4c 17 3c de 68 5e bd e2 96 20 3d
       -0.08435894 0.009234579 -0.054299228 0.039206393
0001f0 d5 85 1d bd 7c 92 a3 3d 34 b9 ac bd 59 ba 6f bd
       -0.03845771 0.07986924 -0.08433762 -0.058527324
000200 f9 fb b5 bd 52 6e 63 3d 21 79 16 3d 8a 2f ff bc
       -0.088859506 0.05552513 0.03673661 -0.031150598
000210 b6 7e 07 bd 05 9c be 3d 85 e2 eb 3b 10 be 8b 3c
       -0.033079825 0.09307102 0.007198634 0.017058402
000220 4d ab 7e 3d 58 5a 95 3d 0f 11 94 bd dc 3d ed bd
       0.062175084 0.07292622 -0.07229816 -0.11584064
000230 2b a2 05 bd f7 4e 02 3d e5 33 b3 bd e3 5a 35 bc
       -0.03262536 0.031813588 -0.087501325 -0.011069032
000240 53 cf b6 3d 47 7e ee bd 15 1d 68 bd 2a e9 6d bd
       0.08926263 -0.11645179 -0.05666836 -0.05808369
000250 37 c9 c0 bd 90 c8 8e bd 06 d0 2e bd 79 e7 be 3b
       -0.09413379 -0.06971848 -0.042678855 0.0058259335
000260 99 4e be 3c 05 cd 93 bc f0 09 98 bc 5c a6 16 bd
       0.023230838 -0.018042097 -0.018559426 -0.036779746
000270 1d 4d 45 3c 50 fd 1b bc 74 5e b6 3d 24 a2 ce 3c
       0.012042311 -0.009520844 0.08904734 0.025223799
000280 98 c4 3d 3d fc 58 63 bc 5e 02 b5 bc 97 53 98 bd
       0.046330065 -0.013876196 -0.022095855 -0.074378185
000290 31 6c 9c bc 17 94 fb bd 7a b2 a6 3d c8 d5 aa bc
       -0.019094558 -0.12284105 0.081395105 -0.020853892
0002a0 b3 25 f7 3c 92 5c 67 bd 90 48 de 3d 48 a0 d9 3d
       0.030169344 -0.056484766 0.10853684 0.10626274
0002b0 f1 f7 10 bc d8 c6 c4 3d 56 90 09 3d da 68 a5 3c
       -0.008848176 0.09608239 0.033584915 0.020191599
0002c0 0b 28 ed 3d d3 9d 19 bd 62 35 7e 3d f7 d0 63 3d
       0.11579903 -0.03750403 0.06206263 0.055619206
0002d0 82 df 97 3d bf 54 5f 3d e1 3e b1 bb e1 c0 cd bc
       0.074156776 0.05452418 -0.005409107 -0.025116386
0002e0 fc 6d 9e bd 42 76 c2 3d 62 8c 50 3d 5b 8e bb bd
       -0.077358216 0.09495212 0.05091513 -0.091580115
0002f0 6a 89 8b 3d 2f 05 7a b8 f8 fa ec 3d c9 bc 11 bd
       0.06813319 -5.9609472e-05 0.11571306 -0.03558043
000300 fc 2b e5 3d 51 80 89 3d b8 9c fc bd 9b 14 f2 3d
       0.1119003 0.067139275 -0.12334579 0.118203364
000310 c1 8a ca bd ab 1f 5e 3b 5d 9f bf 3d 17 6e e9 bc
       -0.098897465 0.0033893387 0.09356568 -0.028494878
000320 1a 63 b6 3d db 7c 2e bc 1b 5d ba bc 91 0b d1 3d
       0.08905621 -0.010649885 -0.022749474 0.10207284
000330 e7 25 9d 3d 9f 75 27 bc f2 3f f5 bd 69 58 9f bd
       0.07673245 -0.010220914 -0.11975087 -0.07780535
000340 1a 4f ad bb 81 c5 de bd aa d5 c1 bd 4b ec 8d bd
       -0.0052889707 -0.10877515 -0.09464581 -0.06929835
000350 d3 61 a7 3d f5 4f ad bd d7 73 1e bd 7c 3d 28 bd
       0.08172955 -0.08462516 -0.038684692 -0.04107426
000360 47 50 8e 3c 3f 63 9e 3d 23 0b 6a bc 2b 55 65 bd
       0.017372264 0.077337734 -0.014284882 -0.055989426
000370 3a 80 69 bd a8 05 ce 3d 32 9a d9 3c ae 8c 88 3d
       -0.057007052 0.100596726 0.026562784 0.066674575
000380 77 b7 24 3d cb 69 70 bd b1 0e 80 bd 96 40 96 bd
       0.04021403 -0.058694642 -0.06252802 -0.073365375
000390 64 c0 ab bc 49 3d 2e bd 3e cf fa bc e0 87 74 3c
       -0.020965762 -0.042538915 -0.030616399 0.014924973
0003a0 fb 48 99 bd 07 e6 c2 bd 32 e9 dc bb 13 71 bf bc
       -0.07484623 -0.095165305 -0.0067416662 -0.023369348
0003b0 59 eb a3 bd 64 81 4a bd c1 f1 ba 3b 98 cb f6 bd
       -0.080038734 -0.049439803 0.005705089 -0.12050551
0003c0 7c 74 43 bd b8 3d 9c 3d f5 24 9b 3c 9b c4 05 bd
       -0.04771851 0.076289594 0.01893852 -0.0326582
0003d0 b4 3b 73 bd c3 6e 2d 3d ba 6a c1 3d 37 2a 8e 3d
       -0.05938311 0.04234196 0.094441846 0.069416456
0003e0 a3 02 60 bd 0b 4d f5 3c be 28 ad 3d 9f bf d1 bd
       -0.054690015 0.029943964 0.084550366 -0.10241627
0003f0 67 39 7f bd f5 4b aa bc ad 9f 9e 3d 96 a3 db 39
       -0.062310603 -0.020788172 0.077452995 0.00041892816

ae_encoder.conv4.bias f4 [128]
000000 24 94 8d 3d 8e d8 ef 3d c5 86 80 3c 02 51 c5 bd
       0.06913021 0.117112264 0.015689263 -0.09634592
000010 d3 b4 f2 3d aa 06 5c 3c 42 b8 c5 3d 00 7d 11 bd
       0.11850896 0.013429323 0.09654285 -0.0355196
000020 74 a8 86 3d e1 aa a2 3c 58 a7 0d bd 0f d4 41 3d
       0.06575099 0.019856872 -0.03458342 0.047321375
000030 72 79 61 3c 9e ae 9b bd 4b 51 d5 3d 56 79 23 bd
       0.013761865 -0.07601665 0.10415896 -0.039910637
000040 5e 26 ce bd 7a dd 99 3d 91 8a 0c bd ba 9f 6d bd
       -0.10065912 0.075129464 -0.034311835 -0.058013655
000050 02 3f 89 bd 9b 39 ed 3d 66 b1 83 bc 3b 74 cf bd
       -0.06701471 0.11583253 -0.016075801 -0.10129591
000060 8c 21 9d 3b 01 96 91 bd 40 db 9f bd c7 05 fd 3d
       0.004795259 -0.07108689 -0.078054905 0.123546176
000070 1b 7f a9 bd 6d 18 44 bb dd 0c 64 3d fd 87 7f bc
       -0.082761966 -0.0029921785 0.05567633 -0.015596387
000080 4a 5f f2 3d a1 33 95 3d ad c5 ae 3d 8d cb 9b bd
       0.11834581 0.07285238 0.085337974 -0.076071836
000090 4b 8f 9f 3d 19 97 98 3d 2f dc f1 3b c7 d7 2a 3d
       0.07791003 0.074506946 0.0073809843 0.041709688
0000a0 97 1c 8d bc ff 31 15 bd 2b ab 8c 3c 62 7f 58 3d
       -0.017225547 -0.036424633 0.017171463 0.052855857
0000b0 b8 64 58 bd 8c 21 28 3d 69 e0 dd 3d cc 1e 3b 3b
       -0.052830428 0.041047618 0.108338185 0.0028552292
0000c0 c3 48 ae bc 72 5d 8e 3c 23 a1 6f bd 25 8d 29 bd
       -0.02127493 0.017378543 -0.05850328 -0.04139437
0000d0 f7 0c ea 3c 36 05 82 3d ac b2 16 3d e4 c1 33 3d
       0.028570635 0.0634865 0.03679149 0.04388608
0000e0 2e 9e e0 3c ec 14 07 3d 01 85 a5 3d f8 96 8d 3c
       0.027419176 0.032978937 0.08082009 0.017283902
0000f0 25 04 35 3b de 02 70 bd 7a f2 ac bd ea b5 41 3c
       0.0027620879 -0.058596484 -0.08444686 0.011823157
000100 df 57 f3 3d 27 55 e0 bc d8 8c 10 3b 67 46 7e 3c
       0.118819945 -0.027384354 0.0022056606 0.015519715
000110 55 67 b0 bd 8d ed 88 bd a6 c1 a4 bd ba ad 65 3d
       -0.08613459 -0.06685934 -0.08044748 0.05607388
000120 c7 46 6a 3c 3f 81 bc 3c e0 bd d2 3c 42 7b ef bd
       0.014299101 0.023010848 0.025725305 -0.116934314
000130 bb 15 b9 3b 66 46 cc bd f5 04 e3 3d c8 86 bd 3d
       0.0056483424 -0.09974365 0.1108493 0.09254223
000140 38 b1 67 bc 1d bc 1f bd 6a 3a 92 3d 72 43 eb 3d
       -0.014141373 -0.03899776 0.07140048 0.114874735
000150 41 2a 8b 3d 40 04 7f bd 7a 76 94 3d c2 a7 a0 3d
       0.06795169 -0.062259912 0.0724916 0.07844497
000160 dd be 46 bc 33 d2 82 bd 4b 70 4b bd 2a b6 58 3d
       -0.012130466 -0.063877486 -0.049667638 0.0529081
000170 c6 11 b2 bc d5 d9 fb 3b 35 a6 34 bc 7c 3f 98 bd
       -0.02173699 0.0076858797 -0.011025955 -0.07433984
000180 ae d2 a3 bd 9b 5e 71 bd 3f 66 f7 bd 89 5f c7 bd
       -0.07999168 -0.058928113 -0.12080049 -0.09735019
000190 6a 95 d8 bd 29 c0 12 bc 38 8d 11 bd f2 cd cf 3d
       -0.105753735 -0.008956947 -0.035535067 0.10146703
0001a0 c4 63 73 bc 41 7c dd 3d ae 33 96 3d df da bd 3b
       -0.014855329 0.10814715 0.07334076 0.0057939137
0001b0 27 de f3 bd 81 2a fd bd 94 50 8f bb 4a 25 4c bd
       -0.119076066 -0.123616226 -0.0043736193 -0.04984025
0001c0 f4 b9 f8 3c a9 66 cc bd 7b 5c e3 3d 5b e7 8d 3d
       0.030362107 -0.09980518 0.111016236 0.06928893
0001d0 76 87 bf 3b 3a a9 a0 3d 1b 34 8c 3d 7e 6f b1 3d
       0.0058450056 0.078447774 0.06845876 0.086638436
0001e0 00 a8 94 3c d0 67 af bd 2f 52 7a bc 98 43 1c bd
       0.018146515 -0.085647225 -0.015278383 -0.0381504
0001f0 73 5c b7 3d cc ce a7 3d b6 ff 4a bd 9f b0 be 3d
       0.0895318 0.0819374 -0.04956027 0.093110316

ae_encoder.conv5.weight f4 [128, 128, 1]
000000 bb a0 dc bc 69 7e 2e 3b 00 07 46 3d 35 8a 88 3d
       -0.026932111 0.002662564 0.04834652 0.06666986
000010 38 d8 a7 3d 40 e7 91 3d 2d c7 8a 3d e3 d3 d8 3b
       0.08195537 0.071241856 0.06776271 0.0066170557
000020 a4 ef 89 bd bd ec 97 bd e6 8e 27 3d 41 b9 a4 3d
       -0.06735161 -0.07418201 0.040907763 0.08043147
000030 fc b3 9b bd 95 18 75 3d 58 02 84 3d 91 f7 5d bc
       -0.07602689 0.059837896 0.064457595 -0.013547794
000040 3c c8 33 bd 83 f4 b2 3d 3a a7 4e 3d 13 59 85 bc
       -0.04389213 0.08738043 0.05045245 -0.016277825
000050 04 fd 89 3d 20 2b 84 3d c0 e2 8d 3d eb 7a a5 bd
       0.06737712 0.06453538 0.06928015 -0.08080085
000060 0a a8 9e 3d 9b 82 8b 3c 64 8b 58 bd 09 44 62 3d
       0.07746895 0.017030051 -0.05286731 0.055240665
000070 fd f2 8f bd 6b 42 c9 3c bc b0 1b bd 20 c8 58 3d
       -0.07028768 0.024567803 -0.038010344 0.05292523
000080 2f c8 22 bd 12 30 5e 3c 8d 1d ac bd 69 1c df 3c
       -0.03974169 0.013561266 -0.08404074 0.027235227
000090 5f 97 96 3d c8 88 52 3d 8e eb d1 3b a4 e9 10 bd
       0.073530905 0.051399976 0.006406254 -0.035379067
0000a0 b0 3f fc 3b 39 6d 58 bc 60 db ac 3d b2 cf 69 bd
       0.007698022 -0.013209634 0.0844028 -0.05708284
0000b0 66 3e ea 3c 09 03 0a bd 76 e0 80 3d 91 7b 3c 3d
       0.028594207 -0.0336943 0.062928125 0.04601628
0000c0 1e e2 12 bd bb 05 b4 3d 48 a8 97 bd 17 96 e4 bc
       -0.035860173 0.087901555 -0.07405144 -0.0279036
0000d0 27 d4 03 bd 4a 48 29 bd d2 ad 12 3c 92 42 06 bd
       -0.032184746 -0.041328706 0.008952575 -0.03277833
0000e0 63 82 9f bd e0 c8 71 bd cd 7b 5b 3d 71 5b 9f bd
       -0.07788541 -0.05902946 0.053584863 -0.07781113
0000f0 5f 60 8d bd 48 d9 d5 3c fe 02 0d 3c 50 a7 aa bd
       -0.06903147 0.026104584 0.00860667 -0.083326936
000100 eb 04 5d 3d d4 99 5b 3d 2b 02 58 bd 03 f6 a7 b8
       0.05395977 0.0536135 -0.052736443 -8.009004e-05
000110 ed f9 87 3d 96 d2 9d bd f2 9e 98 3c e2 e6 3c bd
       0.066394664 -0.07706182 0.018630479 -0.046118625
000120 89 1a 52 bb 93 6c 95 3d 20 80 af bd 47 0a d7 bc
       -0.0032059273 0.072960995 -0.0856936 -0.026250018
000130 c2 78 32 bd 67 a5 03 3c 2f cc e5 bb 3d 3b 90 bd
       -0.043572195 0.00803504 -0.007012866 -0.07042549
000140 b1 33 4c bd 3a 44 3c bd 81 14 78 bc 3d 9f dc 3c
       -0.049853984 -0.045963503 -0.015141607 0.0269314
000150 5f 28 6c 3d 31 38 18 bd 96 7a 52 bd f5 a7 a6 3c
       0.05765569 -0.037162963 -0.05138644 0.02034376
000160 24 2c 99 3c a3 43 1b 3b e3 a9 12 3d c5 7a a2 3d
       0.018697806 0.0023691438 0.035806548 0.07933573
000170 47 01 90 bd a7 38 23 bd 80 11 96 3d 30 b6 85 bd
       -0.07031494 -0.03984895 0.073275566 -0.0652889
000180 5f 97 8d bd 2f af 9e 3d 80 12 e0 3c 08 1f 8e bd
       -0.06913637 0.07748257 0.027352571 -0.069395125
000190 69 51 aa 3d ab fe 14 3d 47 57 3f 3d 9c e6 48 bd
       0.08316309 0.036375683 0.046714094 -0.04904805
0001a0 2f 5d 50 bd 58 d9 85 3b 19 5f c3 3c 8b ee 9f 3d
       -0.050870117 0.0040847473 0.023849057 0.0780917
0001b0 42 5a 87 bd 1c 3e a1 bd 84 2e d4 3c 65 e7 74 bd
       -0.06609012 -0.078731745 0.025901087 -0.059790988
0001c0 c5 fa b0 3a 74 80 af bd 8d f2 4f 3d 21 9d 31 3d
       0.001350247 -0.08569422 0.050768424 0.04336274
0001d0 64 53 95 3d 43 1c 54 3d 00 78 9a 3c 68 62 3c 3d
       0.07291296 0.051784765 0.018856049 0.045992285
0001e0 8e 7f 2e 3d bd 46 8a bd 8b 9a d0 bc 8e 67 00 3d
       0.042602114 -0.067517735 -0.025464317 0.031348757
0001f0 6f 14 07 bd a0 0d 6f 3d c6 24 7b bd f6 88 94 3c
       -0.03297847 0.058362603 -0.061314367 0.018131714
000200 18 35 25 bd 1a fe 7e bd e1 eb 1c bd 27 12 91 bd
       -0.040333837 -0.06225405 -0.03831089 -0.070835404
000210 7a 78 83 bc 2f c0 a3 bd 73 8f 00 3d 19 62 7c 3d
       -0.016048659 -0.079956405 0.031386804 0.06161699
000220 34 93 de 3c 79 23 9c 3d 1f 6b 3c bd 12 62 86 bd
       0.027169801 0.07623953 -0.046000596 -0.06561674
000230 13 f6 2c 3d 8d ba 4b bc f8 ac ac b9 7d bb 00 bd
       0.042226862 -0.012434614 -0.00032935268 -0.031428803
000240 2b 23 1c bd 0c 82 68 3c 74 fe 8c bd 08 32 fa bb
       -0.038119476 0.014191162 -0.068844706 -0.0076353587
000250 56 65 9e bd 4c 99 a4 3c a6 46 5d bd 7b 9a 64 bc
       -0.07734172 0.020092629 -0.054022454 -0.013952847
000260 70 b8 23 bd 0a 29 7b bd 45 07 a8 bd ec 86 26 3d
       -0.039970815 -0.061318435 -0.082045116 0.040656015
000270 b4 81 0b 3c 50 f9 93 bd 0e 62 92 bd f8 6b 65 3d
       0.00851481 -0.07225287 -0.07147609 0.05601117
000280 4e 00 82 bd b9 f8 83 3c c1 78 5c 3d de dd 18 3d
       -0.06347714 0.016109811 0.053826097 0.037320964
000290 43 b4 8b 3d 34 9e 68 bc 25 2e c8 3c 43 7e 25 bd
       0.068214916 -0.014197875 0.024436066 -0.040403616
0002a0 c3 5f 9d bd 9a 51 27 3d c3 81 78 3d 7e d7 cd bc
       -0.07684281 0.040849306 0.060670625 -0.025127169
0002b0 06 f8 26 3d 14 38 db 3c a6 46 ad 3d c4 6f 28 bc
       0.040763877 0.026760139 0.08460741 -0.010280553
0002c0 5a be 94 bd 59 24 30 3d a4 03 1c bd 66 27 28 3d
       -0.07262869 0.043003414 -0.03808941 0.0410532
0002d0 b5 1e 53 bd d3 ea a1 3c 27 7b 20 3d a3 33 09 3d
       -0.051542956 0.019765293 0.039179947 0.03349651
0002e0 c3 f6 48 bd ed 95 5c bd 46 ed a7 bd 04 76 cd bc
       -0.049063455 -0.053853918 -0.08199553 -0.025080688
0002f0 11 c0 99 bd 01 a7 6c 3c ba d2 8b 3d 2e 97 9c 3d
       -0.07507337 0.014444114 0.06827302 0.07646023
000300 0b 3e 07 3c d8 80 33 bd 11 15 2a bd 62 57 2d bd
       0.008254538 -0.043824047 -0.041523997 -0.042319663
000310 62 35 33 bd 2f 5c 80 3d 77 48 be 3c d1 53 75 3d
       -0.04375208 0.062675826 0.023227913 0.059894387
000320 84 45 3f 3d 1c f7 a9 bd 88 96 8e 3d b5 eb 1f bc
       0.046697155 -0.082990855 0.06962305 -0.009760787
000330 8a 26 1a 3d 7f 5f a9 bd e3 41 5d 3d 05 2f 98 3b
       0.03763441 -0.082701676 0.054017913 0.004644277
000340 a3 b3 43 3d 7a 98 00 bd cb 4b 98 3d ea bc a5 bb
       0.047778737 -0.031395413 0.07436331 -0.0050579207
000350 02 b6 2f 3d 01 c6 76 bd 5e 2b 87 bd 78 8c ba 3c
       0.042898186 -0.060247425 -0.066000685 0.022772059
000360 a3 50 8a bc 16 cd 57 3d 8c cd 73 3c 9a 83 8b bd
       -0.016884154 0.05268582 0.014880549 -0.068122104
000370 74 9e 90 bd 49 de 82 bd 6d 7f 0d bd 08 d7 74 3a
       -0.070614725 -0.06390054 -0.03454535 0.00093399035
000380 3e 39 0e bc 4a ea a2 bc aa 1a 20 bd e6 df a6 bd
       -0.00868064 -0.019887108 -0.03908793 -0.08148174
000390 42 ac 70 bd fa f1 18 3d 41 15 24 3d cb ea 35 bd
       -0.058758028 0.03734014 0.04005933 -0.04441337
0003a0 ba 6c e7 3c 82 59 29 bd e5 11 90 bc d3 64 0f 3d
       0.028250087 -0.041345127 -0.017586658 0.035008263
0003b0 a2 16 72 bd 7f 18 e4 3b a8 d0 66 3d f9 0f 24 bd
       -0.059103616 0.006960928 0.056351334 -0.040054295
0003c0 82 8c 42 3d 31 a8 eb 3c 53 d3 4e 3d 5b b9 6a 3d
       0.04749728 0.028766723 0.050494503 0.057305675
0003d0 71 bb 96 bd 3d 0e 63 3d ba 26 23 bd 0a 0c b3 bc
       -0.0735997 0.0554335 -0.039831854 -0.021856327
0003e0 32 16 a2 3d fb 2c 42 bb 01 c7 29 bd 07 43 24 bd
       0.0791439 -0.0029628861 -0.04144955 -0.040102985
0003f0 ad b0 0d bb be 60 14 3d 68 0f 95 3d 78 55 08 bd
       -0.00216202 0.036225073 0.07278329 -0.033284634

ae_encoder.conv5.bias f4 [128]
000000 47 30 1d bc bb 80 69 bd 41 87 a2 3c 85 3f 12 bd
       -0.00959403 -0.057007533 0.019839885 -0.03570511
000010 ca cf 30 3d ff cd 88 3d 29 5c 1a 3d f9 74 ab bd
       0.043166913 0.06679916 0.037685547 -0.0837192
000020 9d 25 98 bc 09 4f 3e bc e4 cb a8 bd 32 bb 8c bc
       -0.018572623 -0.011615523 -0.08242014 -0.017179105
000030 9f e8 58 3d 9a b8 56 bd ea eb 61 3d 27 fb 51 3d
       0.05295622 -0.052422144 0.055156626 0.05126491
000040 eb 09 ae 3d dd 8d 18 3d e3 f0 a8 bd aa b9 2e bd
       0.084979855 0.037244666 -0.082490705 -0.04265753
000050 27 14 ac bc 3e 01 62 bc 88 9c af bd 74 66 37 bc
       -0.021005703 -0.0137942415 -0.08574778 -0.01119386
000060 6e 87 9b 3d c0 65 aa bd 77 5f 5c 3d 34 69 7a 3d
       0.075941905 -0.083201885 0.05380198 0.061135486
000070 29 6b d4 3b 30 f1 05 bd 18 e4 cb 3c 1d 19 11 3d
       0.006482501 -0.032700717 0.024889037 0.03542434
000080 74 6a 31 3b 36 7f ae bd 1e c0 b2 bd e4 da 83 3c
       0.0027071508 -0.08520357 -0.0872805 0.016095586
000090 2b fd 51 3d 47 61 ac bc 2c 2f 9c bb e6 f4 9f 3d
       0.05126683 -0.02104248 -0.0047663655 0.078103825
0000a0 57 68 42 3d de f3 53 3d e4 fa b2 bd 93 3e 81 3a
       0.047462787 0.05174624 -0.0873926 0.0009860568
0000b0 53 c5 68 bd 63 63 2b 3d 35 ef af bd 2d 1b af bc
       -0.056828808 0.04184283 -0.08590547 -0.021375263
0000c0 bc fa 90 3d 42 bd 32 3d f6 50 26 bd a9 64 3b bd
       0.07079074 0.04363752 -0.040604554 -0.045750294
0000d0 62 87 9d bc 6b e8 e3 bc ee 98 7e bd 6f aa 61 3d
       -0.019229595 -0.027820786 -0.062157564 0.05509418
0000e0 a4 24 85 3d 61 f1 e7 b9 86 7a 60 3d 03 31 7b 3c
       0.06501129 -0.00044239595 0.054804347 0.0153315095
0000f0 a8 fe fc 3c 47 ab 8a bd 13 ab 03 bc 8f 2f f6 3c
       0.030883148 -0.0677095 -0.008036393 0.030051975
000100 94 2e 6c 3d 59 8a 5f bd 2c cf 2e bd 32 00 9c 3d
       0.057661608 -0.054575298 -0.042678043 0.07617225
000110 76 d0 71 3d 9a d5 9d bc 11 6f 99 bd dc e1 59 bd
       0.059036694 -0.019266892 -0.07491887 -0.053193912
000120 b0 49 98 3d d6 73 30 bd 51 45 05 bc f9 c0 42 bd
       0.0743593 -0.04307922 -0.008134202 -0.047547314
000130 71 a6 74 3d b8 e3 66 bd c7 1c 95 bd d7 93 5b 3a
       0.059729043 -0.056369513 -0.072808795 0.0008376217
000140 bc 09 96 3c c1 2a 21 3c 0c f1 a2 bd 97 c1 14 bd
       0.018315189 0.0098368535 -0.07956132 -0.036317434
000150 ed c8 d7 bb 45 56 a6 3d e3 26 a9 bd 43 cf 8f 3c
       -0.0065852315 0.08121923 -0.0825937 0.017554885
000160 03 bc 06 bc ef 9c 8e bd 8c 3f 82 bd 7c b2 9b bd
       -0.008223536 -0.069635265 -0.06359777 -0.076024026
000170 25 7f 8f 3d c3 f0 84 bd 82 65 24 3c 15 74 8d 3d
       0.07006673 -0.06491234 0.010033967 0.069069065
000180 13 4f a8 3d 57 81 98 bd c4 d2 2a 3a 28 17 23 bc
       0.08218207 -0.074465446 0.0006516392 -0.009954251
000190 fb da 52 3d 08 87 76 bc e5 31 a5 bd b3 1a 8a bd
       0.051478367 -0.015046842 -0.08066157 -0.06743374
0001a0 71 cd db 3c c0 67 54 bd 88 1b 1b 3d 0c ec 8f 38
       0.02683136 -0.051856756 0.037868053 6.8627385e-05
0001b0 4c 82 8b 3c 1b 20 98 3c b8 c4 1c bd 1e 4f d4 bc
       0.017029904 0.018569997 -0.038273543 -0.025916632
0001c0 68 68 82 3d 6e df 6b bc a9 f4 a5 bc 24 c2 83 3c
       0.0636757 -0.0143965315 -0.020258265 0.016083784
0001d0 1e dc 8a 3d 34 62 40 3d d1 ef e1 bb 7a 9f 69 bd
       0.06780265 0.046968654 -0.0068950434 -0.057036854
0001e0 d5 19 9a bd af 42 16 3d 17 75 a5 bd 56 3e d8 bc
       -0.07524458 0.03668469 -0.08078974 -0.026396912
0001f0 6a c8 ce bc ed ff e5 bc 82 09 a1 3d ae 2b 91 3d
       -0.02524205 -0.028076136 0.078631416 0.07088409

ae_encoder.bn1.weight f4 [64]
000000 ba 03 6d 3e 67 bf 4b 3f f4 8d a2 3e 72 99 9d 3b
       0.23145953 0.7958893 0.31748927 0.004809552
000010 e1 12 32 3d 9c 4b a4 3e fe 72 10 3d 99 4a 48 3f
       0.043475036 0.32088935 0.035265915 0.78238827
000020 b4 84 d7 3e f8 d8 91 3e 29 75 02 3f 56 b4 17 3f
       0.42093432 0.28485847 0.5096002 0.59259546
000030 71 a7 4f 3f 6e 77 f1 3e 35 95 2a 3f 34 f2 a1 3e
       0.8111487 0.4716143 0.6663392 0.316301
000040 76 7b 4e 3f 31 ba 4c 3f 8d 0d 19 3d ae 7b e2 3e
       0.80657136 0.79971606 0.03736644 0.44234985
000050 89 fa 05 3f 7c 62 dc 3e 40 e4 bb 3e 4d 60 16 3f
       0.5233541 0.43043888 0.36697578 0.58740693
000060 a7 8e 03 3f 1a 0e d3 3e 6b 8c 65 3f a4 34 a6 3e
       0.51389545 0.41221696 0.89667386 0.32462037
000070 b8 18 38 3f 10 2f d6 3e 76 8a 7a 3f 5e 59 28 3f
       0.7191272 0.4183278 0.97867525 0.65761364
000080 1a bc 7a 3f 30 2e ab 3e 6b 50 0e 3f 4a 4a c1 3e
       0.9794327 0.33433676 0.5559146 0.3775199
000090 4a 7e 79 3f 25 4d 85 3c 0e a3 46 3d 54 6a 69 3f
       0.97458327 0.016272137 0.048495345 0.9117787
0000a0 10 52 88 3e c7 cd 56 3e 21 29 67 3e c0 7e 3a 3e
       0.2662511 0.20976935 0.22574283 0.18212414
0000b0 06 e3 6b 3e 94 47 8d 3e 3c 7a 41 3e 7f 90 2e 3f
       0.23035821 0.27593672 0.18894285 0.68189234
0000c0 17 b4 a0 3d 16 58 2c 3e da f3 9d 3e 40 a4 fa 3e
       0.078468494 0.16830477 0.30850106 0.48953438
0000d0 c3 22 1d 3e a0 a4 74 3e 91 0f 13 3f 59 b3 37 3e
       0.15345292 0.23890924 0.5744563 0.1793951
0000e0 0a de be b8 14 31 10 3f 3e 34 b4 3e 03 10 1d 3f
       -9.101264e-05 0.5632489 0.35196108 0.61352557
0000f0 7f 34 e9 3e 49 f0 76 3e 24 6e 41 3b 4c 3f 9d 3e
       0.45547864 0.24115099 0.0029515112 0.30712354

ae_encoder.bn1.bias f4 [64]
000000 1e 12 83 ba b7 11 83 ba 70 10 83 ba 27 11 83 ba
       -0.0009999906 -0.0009999786 -0.0009999406 -0.0009999619
000010 21 11 83 3a 23 12 83 3a 82 11 83 3a 3b 12 83 3a
       0.0009999612 0.0009999912 0.0009999725 0.000999994
000020 3b 12 83 3a ee 11 83 3a f2 11 83 3a 78 11 83 3a
       0.000999994 0.000999985 0.0009999855 0.0009999713
000030 bc 11 83 ba 29 12 83 ba 8b 11 83 ba ce 11 83 ba
       -0.0009999792 -0.0009999919 -0.0009999735 -0.0009999813
000040 70 11 83 3a 9e 11 83 3a 8a 03 83 3a da 11 83 ba
       0.0009999704 0.0009999757 0.0009995562 -0.0009999827
000050 28 12 83 3a 2c 12 83 3a 5b 11 83 ba 02 12 83 ba
       0.0009999918 0.0009999922 -0.0009999679 -0.0009999874
000060 f9 11 83 ba aa 11 83 3a 36 06 83 3a 5d 11 83 ba
       -0.0009999863 0.0009999771 0.0009996358 -0.0009999681
000070 53 03 83 ba e1 11 83 ba 37 11 83 ba b7 11 83 ba
       -0.0009995498 -0.0009999835 -0.0009999637 -0.0009999786
000080 fd 11 83 ba a8 01 83 3a ea 10 83 ba ea 11 83 ba
       -0.0009999868 0.0009995 -0.0009999548 -0.0009999846
000090 1e 12 83 ba 31 12 83 3a ce 11 83 ba 79 11 83 3a
       -0.0009999906 0.0009999928 -0.0009999813 0.0009999714
0000a0 ca 11 83 ba b0 10 83 ba 34 12 83 3a ee 11 83 3a
       -0.0009999808 -0.000999948 0.0009999932 0.000999985
0000b0 c3 11 83 3a f7 11 83 ba 61 11 83 ba 90 0d 83 ba
       0.00099998 -0.0009999861 -0.0009999686 -0.0009998549
0000c0 34 12 83 3a ff 11 83 3a 68 10 83 3a 1e 12 83 ba
       0.0009999932 0.000999987 0.0009999396 -0.0009999906
0000d0 09 12 83 ba 92 11 83 ba 75 e9 82 ba 51 11 83 3a
       -0.0009999882 -0.0009999743 -0.0009987789 0.0009999668
0000e0 09 12 83 ba c1 0e 83 3a 21 12 83 ba b9 11 83 3a
       -0.0009999882 0.0009998904 -0.000999991 0.0009999789
0000f0 7c 11 83 3a de 11 83 ba b9 0d 83 3a 29 12 83 3a
       0.0009999718 -0.0009999832 0.0009998597 0.0009999919
